…
 1/41 [..............................] - ETA: 1s41/41 [==============================] - 0s 697us/step
2.411 sec elapsed
  1/133 [..............................] - ETA: 7s 66/133 [=============>................] - ETA: 0s133/133 [==============================] - 0s 749us/step
Model: "sequential"
________________________________________________________________________________
 Layer (type)                       Output Shape                    Param #     
================================================================================
 dense_4 (Dense)                    (None, 64)                      192         
 dense_3 (Dense)                    (None, 64)                      4160        
 dropout_1 (Dropout)                (None, 64)                      0           
 dense_2 (Dense)                    (None, 64)                      4160        
 dropout (Dropout)                  (None, 64)                      0           
 dense_1 (Dense)                    (None, 64)                      4160        
 dense (Dense)                      (None, 10)                      650         
================================================================================
Total params: 13322 (52.04 KB)
Trainable params: 13322 (52.04 KB)
Non-trainable params: 0 (0.00 Byte)
________________________________________________________________________________
  1/133 [..............................] - ETA: 7s 66/133 [=============>................] - ETA: 0s133/133 [==============================] - 0s 738us/step
…
